examples/ictai/GCN_Cora.pth (torch_old, 50951 bytes, 4 tensors)

lin1.weight f4 [16, 767]
00000000: 3c27 83bb bf3c d9bb 5b30 b5ba de63 84ba
00000010: a41e 3ebb 0d70 5dba afe3 2dbc 948a cdba
00000020: 81bd aebb 45a4 1fb8 f9d9 a7ba d79c a1bb
00000030: a5e3 5fbb 8774 46bb d714 84ba 442e 00bc
00000040: 3499 a0bb 427e 0ebc 34a6 51bc fe31 85bb
00000050: 354c ffbb 0e00 ecbb c1d5 49bc b110 92bb
00000060: 4457 49bb edba 8abb cf0e d0b9 4866 e3b9
00000070: c61c bfbb 78d5 2fbc cfcf 61bb 8885 51b9
00000080: b4d5 babb 8d83 54b9 96ea 48ba 0ea4 d6ba
00000090: 287b 0dba 70f1 e6bb f8f1 d2ba a385 b9bb
000000a0: a3e1 03ba a081 02ba 5f26 9bba 0830 0ebb
000000b0: 77bc 81ba ab67 27bb 8ff1 36bb 9ec8 afba
000000c0: f90b 42bb be49 32bc b09e 8bbb b79f 44b9
000000d0: 567c 78bc ac36 a1bb f3f2 63bc a211 7fbb
000000e0: 9cff 7abb 9036 35bb 535e c5ba 4363 85ba
000000f0: c128 aeb9 ff10 3fbc 25e8 8abb bb19 afba
00000100: 76a2 c1bb 4740 3bbc 97fe 87bb f005 1fbc
00000110: b695 88bb 19ef b7bb 3399 d6ba c56a aabb
00000120: 68f6 46bb 9fe0 18bc a3ca 72bc 52be 2dbb
00000130: 4eb6 17bb c1bf 81ba 2707 aebb d359 abbb
00000140: 2274 a9ba 5398 aebb d20e 04bc 6ec9 01bb
00000150: 38df f6ba 5c68 e8bb 1f99 22bb 8d54 1ebc
00000160: 9157 03b8 a1ca 79bb 2fd8 a5bb 972c 14bc
00000170: dd7d 16bb 6d8b 26bb f464 55ba 69b1 39ba
00000180: ddfe 76bb e91b d1bb e8a7 91ba a338 73bb
00000190: fc62 4bba a439 a9bb 5e2e abbb 6838 96bb
000001a0: e5c6 95bb 47ca bfba 4a2f abba 446e 44b9
000001b0: 01c9 14bb f21e 26bb 20a8 9ebb 11d3 13bb
000001c0: 6812 5bbb 45d5 85bb 9559 98ba 8713 ccbb
000001d0: 0a3b 44bb 4419 48bb 60de 8fbb a486 aebb
000001e0: d342 73bb 4472 88bb d64c b8bb 4c97 21bb
000001f0: 0d68 f4ba e467 abba 2f8a d8bb ac3a f0b7
00000200: 8bb6 b1ba 2f85 eaba 750f 55b9 fc12 0dbb
00000210: 7040 acba 00c3 2bbb dfc4 8db8 06d6 debb
00000220: 5563 b9ba fa26 3fbc 9cfc 3dba 7033 8abb
00000230: 0c02 0ebc 6061 6cbb a900 98bb a881 c0bb
00000240: ee2d cdbb 63e4 58bb ac7e 7dba 1a87 cdbb
00000250: 7052 d1bb b949 d7ba e346 49bb 2d42 3cbb
00000260: 461e c1ba a794 49bc cee9 0dbc 6c16 bfbb
00000270: 5980 95b9 a45b 38bb 149b 9cbb 53e2 3bbc
00000280: 07d0 e7ba f20e 37bb 7432 64bb 5c62 06bc
00000290: aa2b e2b8 1c2c 2fbc 7c80 27ba e149 a2ba
000002a0: 27ee 92b6 fd24 35bb a5b9 06ba d50e c1ba
000002b0: 3780 38ba 9e71 15bb 892f 1db9 61ef b9bb
000002c0: 69d8 0cb7 e135 10bb 832a febb b98f b4ba
000002d0: 4594 cbbb 0603 fcba f8f3 73bb 89bc 1fbb
000002e0: b59d 6cbb 75ac d0bb 184b abbb b947 aabb
000002f0: edd0 b9bb 261a 93bb 7ace 89bb 313b 79bb
00000300: 1b26 e9b9 7e3c 69bb 1860 9cba 1486 a6ba
00000310: 8acf 08bc 3439 a3ba 66e2 96ba f347 82bb
00000320: af93 acbb 0e80 8ab9 90ae 9fbb ac99 5cbb
00000330: fd95 fcba 797a 97b8 935f 48bb 555b 12bc
00000340: fe7e eabb bf62 52bc 295f 8fba 8c63 f0ba
00000350: 911b acbb 8d39 b6b9 c94a b1bb 7fb3 edbb
00000360: cd7d 3dba e00d 16ba d8df 13bc 1302 06bc
00000370: e22f 99ba 0a6d 6bbb e25a 27bc dfea 13bc
00000380: 1a95 1cba c028 6abc af59 4fbb 29fa 43bb
00000390: c390 62b9 a01b b5b9 b3f2 afbb 34b0 60bb
000003a0: 46d8 f9ba ee12 03bc e57b eabb 62a7 30b0
000003b0: ef44 04bc 6fad 97bb 32ef e7bb 296f e3bb
000003c0: 7a86 a3bb 3ca9 b8ba bf59 2ebc 4330 70ba
000003d0: c7e5 04bb ed53 02bb 3120 2eba 16e6 29bb
000003e0: a0c0 80ba 15e3 e9b9 f2da 8fbb c41b 91ba
000003f0: 17e6 17bc a450 47bb c482 6cb9 34a7 17bc
-0.00400248 -0.006629556 -0.0013823615 -0.0010100564 -0.0029009962 -0.0008447178 -0.010613366 -0.0015681558
-0.005332649 -3.8061542e-05 -0.001280605 -0.004932027 -0.0034162786 -0.0030281858 -0.0010077012 -0.007823531
-0.0049010757 -0.008697094 -0.012795974 -0.0040647974 -0.007791067 -0.007202155 -0.012319029 -0.004457556
-0.003072218 -0.004233709 -0.00039683885 -0.0004337302 -0.0058322875 -0.010732047 -0.003445614 -0.00019981537
-0.005701745 -0.00020266902 -0.00076643506 -0.0016375796 -0.0005397075 -0.0070478246 -0.0016093841 -0.0056616827
-0.0005030876 -0.0004978422 -0.0011836997 -0.002169611 -0.0009898086 -0.0025543969 -0.0027914976 -0.0013411229
-0.0029609187 -0.010881839 -0.0042608604 -0.00018751515 -0.015166363 -0.0049198475 -0.013912904 -0.0038920422
-0.0038299328 -0.002765093 -0.0015058018 -0.0010176677 -0.0003321823 -0.011661767 -0.0042390996 -0.0013359109
-0.0059092594 -0.011428899 -0.0041502225 -0.009706005 -0.0041682376 -0.0056132195 -0.0016372561 -0.005200716
-0.0030359272 -0.009330898 -0.01481882 -0.0026511145 -0.0023149434 -0.0009899066 -0.005310911 -0.0052292137
-0.0012928287 -0.005328217 -0.008060174 -0.00198039 -0.0018834835 -0.0070925187 -0.0024810506 -0.009663713
-3.1314386e-05 -0.003811516 -0.0050611715 -0.009043834 -0.0022963204 -0.0025412694 -0.00081403484 -0.0007083626
-0.0037688531 -0.006381501 -0.0011112662 -0.0037112616 -0.0007758585 -0.005164342 -0.0052240333 -0.004584361
-0.004570829 -0.0014632427 -0.0013060358 -0.00018733094 -0.0022702815 -0.0025348035 -0.0048418194 -0.0022556225
-0.003342772 -0.0040842616 -0.0011623377 -0.006227914 -0.0029942417 -0.0030532638 -0.004390523 -0.005326109
-0.0037118688 -0.004164012 -0.005624394 -0.002465683 -0.0018646732 -0.0013077226 -0.0066082696 -2.863755e-05
-0.001355843 -0.0017892475 -0.00020319021 -0.0021526208 -0.0013141762 -0.0026208758 -6.760074e-05 -0.006800416
-0.0014143983 -0.011667008 -0.00072474196 -0.0042175576 -0.00866748 -0.0036068782 -0.0046387506 -0.005874831
-0.0062615788 -0.0033095113 -0.00096700597 -0.006272209 -0.006388001 -0.0016425169 -0.0030712418 -0.0028725967
-0.0014733754 -0.012303508 -0.0086617 -0.0058315303 -0.0002851512 -0.0028130794 -0.004779229 -0.011467534
-0.0017685898 -0.0027932492 -0.0034820111 -0.008202162 -0.00010784653 -0.010691669 -0.000638969 -0.0012381637
-4.3788637e-06 -0.0027640455 -0.00051393575 -0.0014729152 -0.00070381485 -0.0022803317 -0.00014990395 -0.005674288
-8.395037e-06 -0.002200477 -0.0077565326 -0.0013775743 -0.0062127435 -0.0019226975 -0.0037224274 -0.002437385
-0.0036104743 -0.0063682147 -0.0052274577 -0.0051965383 -0.005670658 -0.004489201 -0.004205522 -0.0038029666
-0.00044469614 -0.0035589035 -0.0011930494 -0.0012704753 -0.008350262 -0.0012452961 -0.0011511564 -0.003975862
-0.0052666287 -0.0002641682 -0.0048731044 -0.0033660932 -0.0019270774 -7.2230534e-05 -0.0030574545 -0.008932908
-0.007156252 -0.012840926 -0.0010938394 -0.0018340214 -0.0052523096 -0.00034756624 -0.0054105264 -0.0072540636
-0.00072285236 -0.00057241134 -0.0090255365 -0.0081792055 -0.0011687244 -0.0035923147 -0.010214539 -0.009028166
-0.00059731456 -0.014291942 -0.003163915 -0.0029903746 -0.00021606967 -0.00034543592 -0.005369508 -0.0034284713
-0.0019061647 -0.008000119 -0.0071558827 -6.426629e-10 -0.008073076 -0.004628829 -0.007078075 -0.0069407416
-0.004990396 -0.0014088522 -0.010641514 -0.0009162465 -0.002027856 -0.001988645 -0.000664237 -0.0025924495
-0.0009823032 -0.00044610412 -0.004390114 -0.0011070897 -0.009271166 -0.0030413056 -0.00022555428 -0.009256173

lin1.bias f4 [16]
00000000: 71ae 27bc 9b13 23bc 6c23 ea3c e395 17bd
00000010: 60a0 44bd eacd 97ba aa13 a5bc c0dc 52bc
00000020: 9389 e03d 2223 16bc 9c2a 883e c18c 7cbe
00000030: 3d81 93bc 7b2f b3bb 3d8e 82b6 53e6 babc
-0.010234461 -0.009953405 0.028581344 -0.037008177 -0.048004508 -0.0011581753 -0.020150978 -0.012870014
0.1096374 -0.00916365 0.26595008 -0.24663068 -0.018005962 -0.0054683066 -3.8908606e-06 -0.022814905

lin2.weight f4 [10, 16]
00000000: 4221 10bd b67d 10b9 d212 473d e0f9 143c
00000010: c4e9 983b 1374 40bd 54cf d2bd 44d2 d53b
00000020: ac4a 0bbf 729f fbbb accd 24bd 1661 273f
00000030: 4e8a e9ba 0167 0bbb fc1a 95b0 2c97 01bc
00000040: 4d24 553a b44d 7139 c108 833e ca97 7a3b
00000050: f832 503c 787c 463c 24ec 95bc c64c 363e
00000060: fa78 853f ae11 74bb 91ec 953e 83cd d2be
00000070: e66c 2939 70cd 6cbb 7d32 e631 02c2 1739
00000080: 5d02 0abc 6615 cbb9 739f 0fbd f221 1f39
00000090: 853e 0e3e 2d45 f3b9 24ca 8e3d 6573 283e
000000a0: cb47 69bf c136 6431 70f2 74bf 33ac 453f
000000b0: fda3 bd3a 584c f2b0 993c 402f a630 8d31
000000c0: c5ac d3bc 0af1 ec39 a723 4e3d fd0b c73a
000000d0: a2e6 22be 4bcb 1dbd 41df 383d 21d5 2a3d
000000e0: ce72 793e 4d05 46bc 133e c53e 96cb f23e
000000f0: c897 243b 34dd 063b 6c1b 93b1 d5cd 723b
00000100: 1d43 4bbd 6056 2cbd 714c 1f3e b72d bbbd
00000110: 9cd3 de3d 9a02 93bc d0ec cf3d 1128 353e
00000120: 754d 333f d848 b23d d591 2d3f 9bbd e43e
00000130: 665f f0bc f520 ab3d 5155 983b 22b7 bbbd
00000140: ea79 2ebd 2945 8dba fdec 10be 78da dd3c
00000150: 99af 833d 0c9d a8bd b74d 583b ee41 843d
00000160: 8b14 5fbf 46f8 2c3d 8c4a 50bf a3c6 febe
00000170: b73e 7a3c 5218 343c f5a7 34b7 8aaa 01bc
00000180: cf35 16bd 316b 21ba fcbe 9fbc e8a1 10ba
00000190: 18a1 333d f401 363b 931c 91bd 5ab8 c93d
000001a0: 436b c1be 4d68 9eba 51c3 4f3e fd24 1fbf
000001b0: 0924 9bb9 dcae 2f3a e2d4 a8b1 25e7 6b3b
000001c0: 948a d2bb c112 ae2f bad1 25be 37b3 fd39
000001d0: f490 933b 531a 4db9 8294 26be 3116 eb3c
000001e0: 6d6a 8abf 1822 7b3a 953c a7bf 7b6b 0e3f
000001f0: 29be 12b2 cf07 d538 9a7e 3aaf 0dc2 25b9
00000200: 8895 a53c b42b e9b0 0149 103e bbdd 0436
00000210: d206 253e 1387 25bc 3972 1a3d 14fd 2b3e
00000220: f3a4 df3d e02c 44bc 0873 ce3e 5bc7 b4be
00000230: eedd fc3a 07c4 2230 b552 562f 4650 cbbb
00000240: 21bc e43c 4ebf d5ba fbb5 f3bd 0e80 a8bc
00000250: 24c2 83bd e3cb cb3c be34 9cbd 4248 5dbd
00000260: d10a 07bf bc46 4cba 16c5 88be a4e8 f1be
00000270: 30c2 b23b 8696 813a a85f 5bb4 4b5b 3f3c
-0.035187967 -0.00013779741 0.048601933 0.009092778 0.004666539 -0.046985697 -0.10293451 0.0065253098
-0.54410815 -0.0076789195 -0.040235206 0.65382516 -0.0017817707 -0.0021271112 -1.0848846e-09 -0.007909577
0.00081307144 0.00023012498 0.25592616 0.0038237446 0.012707464 0.012114637 -0.018301077 0.17802724
1.0427544 -0.0037241983 0.29282048 -0.41172418 0.00016157664 -0.0036133192 6.699621e-09 0.00014472756
-0.008423415 -0.0003873512 -0.035064172 0.00015176067 0.13891037 -0.00046400112 0.06972149 0.1645027
-0.9112517 3.320949e-09 -0.9568243 0.7721588 0.0014468428 -1.7629516e-09 1.7483827e-10 4.109171e-09
-0.025839219 0.00045193016 0.05032697 0.0015186068 -0.15908292 -0.038523953 0.045134787 0.04170716
0.24360201 -0.012086225 0.3852392 0.4742095 0.0025114883 0.0020578625 -4.2813806e-09 0.0037048955
-0.04962455 -0.04207456 0.15556504 -0.09139579 0.10880205 -0.017945576 0.1015259 0.17691065
0.70040065 0.087053 0.6780065 0.44675907 -0.029342365 0.083558954 0.0046488424 -0.09165789
-0.042596735 -0.0010778058 -0.14152904 0.027081713 0.06429977 -0.08233079 0.0033005306 0.064578876
-0.8714072 0.04222896 -0.8136375 -0.49760923 0.015273741 0.010992127 -1.0767942e-05 -0.007914195
-0.03667241 -0.00061576354 -0.019500248 -0.000551729 0.043854803 0.002777216 -0.07085528 0.098496154
-0.37777147 -0.0012085527 0.20289351 -0.62165815 -0.00029590752 0.00067017763 -4.9136455e-09 0.0035995927
-0.006425211 3.166374e-10 -0.16193286 0.00048389446 0.0045033637 -0.0001956013 -0.16267589 0.028697105
-1.0813729 0.00095799705 -1.3065363 0.5563275 -8.541556e-09 0.00010158086 -1.696158e-10 -0.00015807916
0.020212904 -1.6965402e-09 0.14090349 1.9798597e-06 0.16115883 -0.010103005 0.037706587 0.1679576
0.109201334 -0.01197359 0.40322137 -0.35308346 0.0019292214 5.921383e-10 1.949257e-10 -0.0062046377
0.027921738 -0.0016307624 -0.118999444 -0.020568874 -0.06433514 0.024877494 -0.07627247 -0.05402399
-0.5275088 -0.00077925227 -0.26712865 -0.47247803 0.005455278 0.0009886778 -2.0430764e-07 0.011679481

lin2.bias f4 [10]
00000000: ce5c 7dbf 5417 033e 71cd 29be 7eb2 5ebf
00000010: 4a56 233f 8234 d9be 3043 96be 7376 5e3c
00000020: 5057 683f 83dd 36bf
-0.98969734 0.12801868 -0.16582276 -0.8699111 0.6380354 -0.42422873 -0.29348135 0.013578045
0.9075823 -0.7143175
