examples/ictai/model.pth (torch_old, 50668 bytes, 4 tensors)

conv1.weight f4 [767, 16]
00000000: 3d23 193b c04e 6bbd cd8c 89bd 7d86 a9bd
00000010: c9a7 b73d 8cc6 35bc 717d ddbc c724 41bd
00000020: 6ac6 bebd 2e95 23bd d40b a8bd b6c9 2f3c
00000030: 6c80 613c b7f5 323e 9888 493a 43ee 04bc
00000040: baa0 913c 48b1 e0bc fbb8 a2bd 40a6 253c
00000050: 8161 13bd 65c7 3cbd 9579 7bbc 9e3f 82bd
00000060: f860 b1bd cc57 a3bd 2f14 f9bd 4d59 4dbd
00000070: 80eb 95bc 7577 01be 9316 ba3a ecdb 25bd
00000080: 97a8 b9bd 5bcd c9bd 5846 0d3b a633 42bd
00000090: f64d d4be 5787 fbbb 27b3 68bc 3c1c 67bd
000000a0: f45d 66bd d739 0ebd 1629 acbd 206d 83bc
000000b0: 85ea a6ba ce5e 263e 0d27 98bb 21c1 41bd
000000c0: 0cf6 04bd bdb4 74bd ca88 20bd ac23 a93c
000000d0: 3e6a d43d aa28 07bd 6b45 bdbc f31a 5cbd
000000e0: 8ef7 b3bc df2e 6cbd ffb7 a7bd fade 58bb
000000f0: a3cf c7bd 2a3f 25be 271d 7dba 96a5 fbbd
00000100: b035 64bc 1393 eebd c341 19bd f641 e2bd
00000110: 009c 253d 36b1 1bbc ed12 04bd 730b 80bd
00000120: c9eb b5bd 374e a1bd baac f7bd e966 7fbc
00000130: 9440 10ba c1ce 673c 9d39 9939 06ba b3bd
00000140: d334 c9bc 0707 aebd 3b1b 55bd 1bca c0bd
00000150: cde4 3abe 53e2 99ba db79 cfbc f302 5ebd
00000160: a151 86bc 5529 2a3c b4e5 c2bb d08e ae3c
00000170: 8df1 aa3b faa5 163e aa42 7cbb cf5b 5fbc
00000180: 29f4 4fbd 69b2 3dbd f47e 62bd 31d4 2bbd
00000190: d3b1 813e 1d27 ce3b d9f1 debc da7c 98bd
000001a0: 11c3 963c 0fc4 f7bd ac03 87bd f5fb 92bd
000001b0: b618 dbbd 8c2d ad3d fed0 793b 7353 553b
000001c0: 0c2f 63bd 03d8 b0bd b17c e6bd 8567 c5bd
000001d0: 7cf3 1fbf 0f69 3dbd dff7 cebc 2d59 48bd
000001e0: 43c0 313c a6f0 e6bc f52d 37bd c560 3ebd
000001f0: c8bd 7ebd c735 1a3f 14f0 3fbd 4746 123d
00000200: 30d0 c8bd 04fd 89bb 68d0 e0bc 4ac6 42bd
00000210: 2d69 093e 7c75 efbc 087b 0ebd 378a 6fbd
00000220: 564f 2e3c aa88 45bc 9223 d1bd 0b46 44bc
00000230: b955 89bd ecd1 7a3d e7fd abbb acec c53c
00000240: 99c5 e9bd c851 dfbd 87f4 f1bd b953 80bc
00000250: 253d 26be 173b afbc 4fc2 06bd 97bf 55bd
00000260: 8640 793b d94d 97bd 1e4a d6bd 57a3 c33c
00000270: 745b abbc 7f1d debd d471 80b6 c72b 8abd
00000280: 82c8 153c dcae 0b3c 8f2d 95bd cb65 84bd
00000290: 7034 8bbe 07ff c6bb 2635 183c 284a 83bd
000002a0: a4b8 97bd 7f16 d0bc 8cb3 83bd 7ee7 96bd
000002b0: c828 99bd d061 68be 8cbd 803b c7b4 34bd
000002c0: 167f 373c a3c1 12bd b3c8 30bd af08 ccbd
000002d0: 136c e8bd 9a89 30bc 344a 15bd b0a9 4ebd
000002e0: 8dd5 01bd f7b3 96bd 79e7 2b3b 35b5 09bb
000002f0: a78b 05bc 842f 8a3d ff1e a6bb b164 bfbd
00000300: 8c99 8dbd 6c0d d8bd 574f 843b 4fcb b8bd
00000310: 177b cf3d b04b 85bd 75a9 eebc a88b 97bd
00000320: b95d 14bd 693b 88bc 5196 5d3c 2994 27bd
00000330: f287 10bc 7c80 643e 10ed 233b 19c3 263d
00000340: b7c9 fdbd 4347 afbd b0bb 1d3d 7d8b 80bd
00000350: 3b6d 4e3e c073 90bc 7f8e abbc 2219 40bd
00000360: 094d 63bd 6f6a 57bb 2420 ffbd b6c1 2dbd
00000370: 8a70 c2bd 52aa 88be eae2 7eba 1f6d 0abe
00000380: fdf6 9bbc 7aa3 a8bc 935e 093d 7f4f 28bd
00000390: f7f8 603e 85b0 80bc 4692 b4bc 9f96 48bd
000003a0: a83c 83bd aae5 52bc 38be d5bc 37bd 20bd
000003b0: f8b7 dabc 7508 43be 7c83 7c37 ddef 4cbd
000003c0: 45a1 613b 83d8 c3bd 1a15 123d 6dc0 db3b
000003d0: 6d87 7a3c 8d81 52bd a049 d739 b0b2 89bd
000003e0: 743f aebd ffa0 0ebd b643 55bd af07 84bd
000003f0: 0cf2 d0bd 49c3 05be 2735 54bc b72a c0bd
0.002336695 -0.05744815 -0.06716309 -0.08277605 0.08967549 -0.011094701 -0.027037354 -0.047154214
-0.09315188 -0.03993719 -0.08205381 0.010729244 0.013763528 0.17476545 0.00076878956 -0.008113447
0.017776836 -0.027428284 -0.079454385 0.010110438 -0.03598166 -0.046088595 -0.015348812 -0.0635979
-0.086610734 -0.0797573 -0.12162053 -0.050133992 -0.018300772 -0.12643225 0.0014197401 -0.040492937
-0.09065359 -0.098536216 0.002155682 -0.047412537 -0.4146573 -0.007676046 -0.0142028695 -0.05642341
-0.056241944 -0.03472313 -0.08406274 -0.016043246 -0.0012734687 0.16247103 -0.004643327 -0.047303323
-0.03246121 -0.059742678 -0.039192952 0.020646892 0.103718266 -0.032997765 -0.02310439 -0.05373664
-0.02196863 -0.057661887 -0.08189391 -0.0033091889 -0.097564004 -0.16137376 -0.0009655528 -0.122874424
-0.013928816 -0.11649146 -0.03741623 -0.11047737 0.040431976 -0.0095027 -0.03224461 -0.06252184
-0.08882863 -0.078762464 -0.12093492 -0.015588501 -0.0005502787 0.014148415 0.0002922536 -0.087757155
-0.024561321 -0.08497434 -0.052027922 -0.094135486 -0.18251343 -0.0011740424 -0.02532666 -0.05420203
-0.016396346 0.010385831 -0.005947793 0.021308333 0.0052167834 0.14711753 -0.0038491883 -0.013632729
-0.05076996 -0.046312723 -0.055296853 -0.04195041 0.25330982 0.0062912838 -0.027214931 -0.074456885
0.018403562 -0.12097942 -0.06592497 -0.07176963 -0.106980726 0.08455953 0.0038118954 0.003255096
-0.05546479 -0.08634951 -0.11254252 -0.096388854 -0.624809 -0.04624277 -0.025264679 -0.04891317
0.010849061 -0.028190922 -0.044721562 -0.046479005 -0.06219271 0.6023831 -0.046859816 0.035711553
-0.098053336 -0.00421107 -0.027443126 -0.047552384 0.13419028 -0.029230826 -0.0347853 -0.05848142
0.010639032 -0.012056509 -0.102118626 -0.01197959 -0.067058034 0.061235353 -0.0052487734 0.024160706
-0.11414642 -0.109042704 -0.11814218 -0.015664922 -0.16234262 -0.02139048 -0.03290015 -0.052184667
0.0038032844 -0.07387895 -0.104633555 0.023881597 -0.020917632 -0.1084547 -3.8279486e-06 -0.06746631
0.009142043 0.008525576 -0.0728408 -0.06464728 -0.27188444 -0.006072882 0.009290015 -0.064106286
-0.07408264 -0.025401352 -0.0643073 -0.073683724 -0.074784815 -0.22693563 0.0039288457 -0.044117715
0.011199733 -0.035829198 -0.04316015 -0.09962594 -0.113487385 -0.010774994 -0.03644772 -0.050454795
-0.0316978 -0.07358544 0.0026230498 -0.0021012549 -0.0081509715 0.06747344 -0.005069613 -0.09345377
-0.06914052 -0.10549435 0.0040377784 -0.09023153 0.101308994 -0.06508577 -0.029133538 -0.07399684
-0.036222193 -0.016629891 0.013524608 -0.04091278 -0.008821474 0.22314638 0.0025013126 0.040713403
-0.1239199 -0.08558514 0.03850907 -0.06276605 0.20158856 -0.017633319 -0.02094197 -0.04689897
-0.05549339 -0.0032869836 -0.12457302 -0.042421065 -0.094941214 -0.26692444 -0.0009723144 -0.13518189
-0.019038672 -0.020585764 0.03353746 -0.04109144 0.21969973 -0.015709171 -0.022042405 -0.04897177
-0.06408054 -0.012872139 -0.02609168 -0.03924295 -0.026699051 -0.19046195 1.5050984e-05 -0.05003344
0.00344284 -0.09562781 0.035664655 0.0067062886 0.015291077 -0.05139308 0.0004106285 -0.06723535
-0.085081965 -0.034821507 -0.052066527 -0.06446778 -0.10202417 -0.13062777 -0.012952126 -0.09383147

conv1.bias f4 [16]
00000000: f829 6bbd 78c3 35bd b764 bbbc 0d76 23bd
00000010: 2f83 013f 96e8 37bd 01a7 93bd 2dea d7bd
00000020: 9f83 5bbd 93f1 65bd 9f5c 60bd e1a8 1ebd
00000030: fd53 5cbd 941b 243e 49f6 e8bc fdaa 16bc
-0.05741307 -0.044375867 -0.022875173 -0.039907504 0.50590795 -0.044899546 -0.07209588 -0.10542712
-0.05359232 -0.056138586 -0.05477583 -0.038735274 -0.053791035 0.16026145 -0.02843775 -0.00919604

conv2.weight f4 [16, 10]
00000000: f059 973e 270c 89be 2203 6cbe 8090 3b3e
00000010: db56 aebe 0f5a 163e 3fb5 983e c122 bdbe
00000020: 4aa9 b4be c109 10be 27fc 3d3d 8e40 0fbe
00000030: 1bb6 9f3e 988e 7b3e aa77 f63e e915 9c3e
00000040: d41f 123d d9c7 64be f521 a9be 7ef5 ae3e
00000050: 0c89 4c3e 99a8 c13e 0526 543e 7022 dfbe
00000060: bd2a 433e 594e c03e 29d3 20be bfcd 9f3e
00000070: f1ef a2be 154d 6a38 6a7c 3c3e 2b1a 823e
00000080: 58b1 1e3e 99ca 9f3e c743 983e a5ef bcbe
00000090: a6ef ad3d 58c0 a6be 5cd6 2ebc 0114 b23e
000000a0: 0791 903e 2827 9d3f 5a57 9fbe 61c7 b53e
000000b0: 1dc0 593f c445 84bf 383b 85bf 2ac0 85bf
000000c0: 0d18 95be 6ed3 0cbe 2303 a9be fcde 1a3e
000000d0: 4ef1 a93e 314f 44bd 481f b7be db20 d03c
000000e0: aeec 01be e9b7 003b 08cf b5bd 9f11 2abe
000000f0: df0e 67be cdab 4dbe da8c 9d3d ef7e 943e
00000100: 9e83 e4be 23e1 5f3d 7f81 9c3e 482e 0ebe
00000110: 45ae e0be fc2a 99be 69ee 8d3d 387a cb3e
00000120: acdd 9ebe 49bb 95be 5d7a 83be b888 923e
00000130: b588 e53d bf8e a4be eed7 b3bd 9c32 29bd
00000140: 76aa c8be 91c5 7fbe c2c3 353e 3f97 e8be
00000150: 990d acbe d66c 8bbe 494c ab3e f0f1 3c3e
00000160: 6ace 303e fb72 2abe daa6 d6bd b10b 203e
00000170: a8d6 85be beaa 53be d875 a9be b96d 8cbe
00000180: 3ac9 c93e 29dd ef3d 5a51 993e 7fe1 623c
00000190: d3c8 d43e 5274 043f 7cd2 b63e 496d 80be
000001a0: 3fb7 393d a1a3 d3bd 254a cabd bfba a5bd
000001b0: ad0e c53e a559 3bbe 7949 b9be 0b06 68bd
000001c0: 3f23 d7bc 789d cc3e b462 1bbe 1076 423e
000001d0: 3ce3 b5be d5df a33e a643 d83e 3f13 a2be
000001e0: 7e10 a93e ef42 c63e 922f 92be 7a17 f53c
000001f0: 8ffd ddbb be5c 483e a3a1 403e 7838 033d
00000200: 25e0 ad3d 111c 1a3e 84d5 84be 6143 10bf
00000210: 7413 123e 71d7 283e cfa7 1a3f 53e0 6abf
00000220: 3f9f 8c3f 2d48 13bf a37f 953f 5d5f e4be
00000230: e632 cdbe cea7 593e e02b 053d 51dd c5be
00000240: 6c49 93bc 586a 10be a466 913e e2b9 f93d
00000250: 5d0c 5dbe 8d33 23bd a69f b03e 902c adbe
00000260: 074f 81be 6af1 b43e da0f ee3e a34e 9cbe
00000270: aef3 db3d 43bc abbe d4be 3c3e 5a64 9e3e
0.29560804 -0.26767084 -0.2304807 0.18316841 -0.3405064 0.14682792 0.2982578 -0.36940578
-0.35285407 -0.14066221 0.04638305 -0.1398947 0.31193623 0.24566114 0.4813817 0.30485466
0.035674885 -0.22341861 -0.3303372 0.3417167 0.19974154 0.37823942 0.20717628 -0.4358096
0.19059272 0.37559775 -0.15705551 0.3121166 -0.31823686 5.5861736e-05 0.18406835 0.2541059
0.15497339 0.31209257 0.2973921 -0.36901584 0.08492975 -0.32568622 -0.010671224 0.34780887
0.28235647 1.2277575 -0.3112133 0.35503677 0.85058767 -1.0333791 -1.0408697 -1.0449269
-0.29119912 -0.13752529 -0.33010206 0.15124124 0.33191913 -0.047927085 -0.35766053 0.025406292
-0.12687942 0.001964087 -0.08877379 -0.16608284 -0.22564267 -0.20085068 0.07692881 0.29003093
-0.44631666 0.054658066 0.30567548 -0.13884842 -0.43882957 -0.29915607 0.06930239 0.39741683
-0.31028497 -0.2924445 -0.25679293 0.28619933 0.112077154 -0.32140157 -0.0878142 -0.04130803
-0.3919255 -0.2497771 0.17750457 -0.45427892 -0.33604124 -0.27231473 0.33456638 0.18451667
0.1726624 -0.16645424 -0.10481043 0.1562946 -0.26140332 -0.20670602 -0.3309772 -0.27427462
0.39411336 0.11712105 0.2994488 0.013847708 0.41559467 0.5173999 0.35707462 -0.25083378
0.045340773 -0.10333944 -0.09877423 -0.080922596 0.3848776 -0.18295915 -0.36188868 -0.056646388
-0.026261924 0.3996389 -0.15174371 0.1899035 -0.3552493 0.32006708 0.42239112 -0.3165531
0.33020395 0.3872294 -0.28551918 0.029918421 -0.0067746113 0.19566628 0.1881166 0.032036275
0.08490018 0.15049769 -0.2594415 -0.5635281 0.14265233 0.16488434 0.60412306 -0.9174854
1.0986098 -0.57532007 1.1679577 -0.44604006 -0.40077895 0.21255419 0.032512546 -0.38645414
-0.017979346 -0.14103067 0.2839862 0.121936575 -0.21586747 -0.039844085 0.34496802 -0.3382306
-0.25255606 0.35340434 0.4649647 -0.30528745 0.107398376 -0.3354207 0.1843217 0.30935937

conv2.bias f4 [10]
00000000: f69d 97bd b907 b6be aef1 5e3f 16f0 90be
00000010: 0d7e 3bbe f34f c03d 9d3d 86bf 9002 843f
00000020: 77a9 a2be 8146 7bbe
-0.074031755 -0.35552767 0.87087524 -0.2830817 -0.18309803 0.09390249 -1.0487553 1.0313282
-0.31769916 -0.24538614
